checkpoint_actor.pth (torch_old, 159146 bytes, 6 tensors)

fc1.weight f4 [256, 24]
0	0x3cb4e614	0.022082366
1	0x3e5d7b82	0.21629146
2	0x3d4637ad	0.04839294
3	0xbbcd44ad	-0.0062642903
4	0x3cafeb4a	0.0214745
5	0xbd424adf	-0.047434684
6	0x3d58d4b6	0.052937232
7	0x3d90e219	0.07074375
8	0xbc800405	-0.015626917
9	0x3e62fff9	0.22167958
10	0x3c6b6dd3	0.014369446
11	0xbce276ba	-0.027644504
12	0xbb8a5c6a	-0.0042224424
13	0x3ba84fb8	0.0051364563
14	0x3d9c84c6	0.07642512
15	0x3cd154e4	0.025553174
16	0xbd8d4836	-0.06898539
17	0x3dbcdf26	0.0922225
18	0xbd33c548	-0.043889314
19	0x3e0a584a	0.13510242
20	0xbdc60f67	-0.096709065
21	0x3e13230b	0.14368837
22	0x3cb03dbe	0.021513816
23	0x3db830af	0.08993661
24	0xbcd7affb	-0.026329031
25	0x3d59258c	0.053014323
26	0xbd4b680b	-0.04965977
27	0xbc0e5770	-0.008687839
28	0x3dc11cea	0.09429343
29	0xbdc1d558	-0.0946452
30	0xbd28853f	-0.0411427
31	0xbdcfc202	-0.10144426
32	0xbaad2d13	-0.0013212286
33	0x39892f9e	0.00026166154
34	0x3d130b4e	0.035899453
35	0xbd0e4f2a	-0.034743465
36	0xbd50c4ec	-0.05096905
37	0xbe22e044	-0.15905863
38	0xbc3cc147	-0.01152069
39	0xbcca3284	-0.02468229
40	0x3d547321	0.051867608
41	0xbd4d8c22	-0.05018247
42	0x3b007e51	0.001960654
43	0x3d1d79d9	0.03844628
44	0xbd416dc0	-0.047223806
45	0xbe293aee	-0.16526386
46	0x3d413a13	0.047174525
47	0x39084e3f	0.0001299912
48	0x3c81f810	0.015865356
49	0x3e300f49	0.17193331
50	0x3cf0b792	0.029384408
51	0xbda65e99	-0.08123512
52	0x3cd50003	0.026000982
53	0x3e1d3807	0.15353404
54	0xbd5aa67d	-0.05338143
55	0xbe0a6f6e	-0.1351907
56	0x3d809754	0.062788635
57	0x3d1e15bb	0.038594943
58	0xbdbf1d8a	-0.09331806
59	0xbe363bdb	-0.1779627
60	0x3e29cde0	0.16582441
61	0x3d828114	0.06372276
62	0xbd97d35c	-0.074133605
63	0xbe21eba1	-0.15812542
64	0x3d5d54e3	0.054036032
65	0xbd8c5461	-0.068520315
66	0xbd5b2941	-0.05350614
67	0xbe363b9f	-0.17796181
68	0x3e82eb7a	0.2557028
69	0xbd115a34	-0.035486415
70	0xbbe97ab7	-0.0071252245
71	0xbdd29ce7	-0.10283833
72	0x3c183657	0.009290299
73	0x3edc8794	0.43072188
74	0xbbc855e3	-0.006113754
75	0xbdc49cc4	-0.09600213
76	0x3db99007	0.09060674
77	0x3e1d0db4	0.15337259
78	0x3c910c62	0.0177061
79	0xbdd2dde0	-0.102962255
80	0xbc4b666a	-0.012414554
81	0x3ef13a51	0.47114804
82	0xbc4195cf	-0.011815502
83	0xbd0a2405	-0.033725757
84	0x3e71e014	0.23620635
85	0x3e9366f2	0.2878948
86	0x3cda2d0d	0.02663281
87	0x3d1c25ec	0.038122103
88	0x3e13eb38	0.14445198
89	0x3f1932fd	0.59843427
90	0xbd563c3f	-0.05230355
91	0x3ddf5882	0.109055534
92	0x3e41de76	0.18932518
93	0x3f010d89	0.5041128
94	0x3d34f347	0.04417732
95	0x3e0df0ca	0.13861385
96	0xbdd36d04	-0.103235275
97	0xbd1211f4	-0.035661653
98	0x3d55ea8d	0.05222564
99	0x3db9c1e6	0.09070186
100	0x3deecbd2	0.116599694
101	0xbde6c9bc	-0.112689465
102	0xbd5b3295	-0.053515036
103	0x3c9748c8	0.018467322
104	0xbe12813d	-0.14307113
105	0xbdeec256	-0.116581604
106	0xbbb3e09c	-0.005489422
107	0xbd0fa980	-0.035073757
108	0x3e323bf5	0.17405684
109	0xbdee56ea	-0.11637671
110	0x3c871dc9	0.016493695
111	0x3d040b6d	0.03223746
112	0xbd9463d6	-0.07245605
113	0xbdf3eac1	-0.1191001
114	0xbca7040d	-0.020387674
115	0x3da1ed3d	0.07906578
116	0x3da77af4	0.08177748
117	0xbe4d3e8e	-0.20043394
118	0x3c958ca9	0.018255549
119	0x3e16db62	0.14732125
120	0x3c9dfd8b	0.019285938
121	0xbde67030	-0.11251867
122	0xbd451b92	-0.048121996
123	0xbd62510f	-0.055253085
124	0xbc92a5d3	-0.017901337
125	0xbe1cc29d	-0.15308614
126	0x3cf6827a	0.030091513
127	0xbd17a64d	-0.03702383
128	0x3bf0ad79	0.0073448983
129	0xbdcbb7ad	-0.09947143
130	0xbcd0f52c	-0.025507532
131	0xbd2f14a5	-0.042744298
132	0xbe59b358	-0.2125982
133	0xbe93166b	-0.2872804
134	0x3d2c63c5	0.042087335
135	0xbc8962d5	-0.01677076
136	0x3dab389e	0.08360408
137	0xbe5a9c78	-0.2134875
138	0x3c7f44b4	0.015580345
139	0x3ce037bd	0.027370328
140	0xbe8e6f46	-0.2781927
141	0xbeceda3f	-0.40400884
142	0x3cc32653	0.023821985
143	0x3a99ff09	0.001174898
144	0xbe0ffed8	-0.14062059
145	0x3e95e7fe	0.29278558
146	0xbd61d779	-0.05513713
147	0xbd20928d	-0.03920226
148	0x3e33a61c	0.17543834
149	0xbc247086	-0.010036593
150	0xbce2d6d0	-0.027690321
151	0x3d4e2d59	0.050336216
152	0xbca740c0	-0.020416617
153	0x3e78e0df	0.24304532
154	0xbd0c099b	-0.034188848
155	0xbd570ba9	-0.052501354
156	0xbbb0d73f	-0.005396753
157	0xbc9241fa	-0.017853726
158	0xbd630d75	-0.055432756
159	0xbd354f35	-0.04426499
160	0x3be48210	0.0069735125
161	0x3e97a284	0.29616177
162	0x3b2ec7bf	0.002666935
163	0xbd333859	-0.04375491
164	0xbd81aecf	-0.0633217
165	0xbe7eebd2	-0.24894646
166	0x3a20d37c	0.0006135029
167	0xbc54d16a	-0.012989381
168	0xbce2155b	-0.027598074
169	0xbe285c33	-0.16441421
170	0xbcc332b0	-0.02382788
171	0x3de8a7ba	0.11360116
172	0x3df7a73f	0.120924465
173	0xbe269808	-0.16268933
174	0x3b85d1b4	0.0040838365
175	0x3d8ad444	0.06778768
176	0x3c92dc5c	0.017927341
177	0xbde87d70	-0.1135205
178	0xbd252eb7	-0.040327754
179	0x3cfa750a	0.030573387
180	0x3bdbbf73	0.006706172
181	0x3ca67616	0.02031998
182	0xbcdc8045	-0.026916632
183	0x3d1bfa65	0.03808059
184	0x3e01f684	0.12691694
185	0xbdd705c2	-0.10499145
186	0x3c185f62	0.009300085
187	0x3d8e3ce2	0.06945206
188	0xbce48274	-0.027894236
189	0x3e7a0708	0.24416745
190	0x3dafd161	0.08584858
191	0x3d4ca5f8	0.049962968
192	0x3dee14d8	0.116250694
193	0xbd880df0	-0.06643283
194	0x3d148a59	0.03626475
195	0xbcd7bb1f	-0.026334343
196	0x3e763472	0.24043444
197	0xbe4fdff5	-0.20300277
198	0x3d1e9791	0.038718764
199	0xbd53c0be	-0.051697485
200	0x3e160bc2	0.14652923
201	0xbd65bc69	-0.056087885
202	0xbd0e55dc	-0.03474985
203	0x3c9ab0d8	0.018883154
204	0x3e8c7afd	0.27437583
205	0x3d6f766f	0.058462556
206	0xbc6e28a5	-0.014536058
207	0x3d32b0fc	0.043625817
208	0x3e63c7b4	0.2224415
209	0x3b267a6a	0.0025402554
210	0x3d4157b5	0.047202785
211	0xbc33b012	-0.010967271
212	0x3e2c697c	0.16837114
213	0x3e153352	0.14570358
214	0xbcf9af6c	-0.030479155
215	0xbd9e306e	-0.07724081
216	0x3dd90076	0.10595791
217	0x3c457a01	0.012053014
218	0xbdb0b9bd	-0.08629177
219	0x3a1f0852	0.00060666085
220	0x3cc04449	0.02347006
221	0xbc9f145d	-0.01941889
222	0xbdc1780f	-0.094467275
223	0x3c9511ea	0.018197019
224	0x3c853cbc	0.016264312
225	0xbcbd5465	-0.023111532
226	0x3d1e4760	0.038642287
227	0xbd082589	-0.03323892
228	0x3e2c4cac	0.16826123
229	0x3d8ec361	0.06970859
230	0xbbd92797	-0.006627034
231	0xbdd40b84	-0.10353759
232	0x3dac6a04	0.084186584
233	0x3c180a5a	0.009279812
234	0xbd373987	-0.044732597
235	0x3ddb05d0	0.10694468
236	0x3e5c6ebc	0.21526617
237	0x3ccf01f0	0.025269479
238	0x3d55e489	0.0522199
239	0x3da585e8	0.08082181
240	0xbb41fd94	-0.0029600607
241	0x3d43175d	0.047629703
242	0xbbe7cad1	-0.007073738
243	0xbcbf37ed	-0.023342097
244	0x3daa9160	0.08328509
245	0x3e24e82c	0.16104192
246	0xbd4a8f4e	-0.049453072
247	0x3d04d322	0.032427914
248	0x3d99a4e0	0.075021505
249	0x3d0a252e	0.033726864
250	0x3d7eee78	0.06223914
251	0x3d8bf806	0.06834416
252	0x3dd80542	0.10547878
253	0xbd1204fb	-0.03564928
254	0x3cab03e3	0.020875877
255	0x3db7f7c6	0.08982806

fc1.bias f4 [256]
0	0xbc9ac826	-0.018894266
1	0x3e051f97	0.13000332
2	0x3e365d7a	0.17809096
3	0xbccdd21a	-0.025124598
4	0x3e46ad39	0.19402017
5	0xbe106c8f	-0.14103912
6	0xbe30d18d	-0.17267437
7	0xbe9a4cc8	-0.30136704
8	0xbe899a92	-0.2687574
9	0xbe6292c2	-0.22126296
10	0x3da61474	0.0810937
11	0x3d332052	0.043731995
12	0x3cface2b	0.030615887
13	0xbda81742	-0.08207561
14	0x3dab0ebd	0.083524205
15	0x3ea7b864	0.32757866
16	0xbd348f48	-0.044081956
17	0xbdbcda4c	-0.09221324
18	0xbe0017a7	-0.12509023
19	0xbdff9764	-0.12480047
20	0x3d049308	0.032366782
21	0xbe83594b	-0.25654063
22	0xbd991c77	-0.07476132
23	0xbe08fa1d	-0.1337666
24	0x3d81db00	0.06340599
25	0x3dd488cb	0.10377654
26	0x3e1a638b	0.15077035
27	0x3db4c491	0.088265546
28	0xbd68ec4b	-0.05686597
29	0xbc5ce46f	-0.013482197
30	0x3d1fbf7a	0.039000966
31	0xbe38900e	-0.18023703
32	0xbc3f1473	-0.01166259
33	0x3e92d1e3	0.28675756
34	0xbe106708	-0.14101803
35	0x3dd15de1	0.10222984
36	0x3c30b0f4	0.010784376
37	0x3e547ea7	0.20751439
38	0x3d48ea60	0.049051642
39	0x3defbbff	0.11705779
40	0xbe3b3d4f	-0.18285106
41	0xbd412ab1	-0.047159854
42	0xbd84d5c5	-0.06486086
43	0x3d5a413c	0.05328487
44	0xbda8ffad	-0.08251891
45	0xbe497734	-0.19674379
46	0xbe8df3b6	-0.27725
47	0xbe81222a	-0.25221378
48	0x3e4bfd66	0.19920883
49	0x3e0c8a93	0.13724737
50	0xbe9d9f95	-0.30785814
51	0x3e8ba6d8	0.2727573
52	0xbe9bcd0b	-0.30429873
53	0xbea80089	-0.32812908
54	0x3eb058bc	0.344427
55	0xbd1f7950	-0.038934052
56	0x3e05fd18	0.13084829
57	0xbe3eb823	-0.1862493
58	0xbed0dd31	-0.40793756
59	0x3eadc36e	0.33938164
60	0x3d7655d0	0.06014043
61	0xbcd5a117	-0.02607779
62	0xbd863491	-0.06552995
63	0xbe698fd0	-0.22808766
64	0xbe0768e9	-0.13223614
65	0xbe6eac6c	-0.23307961
66	0xbdb75924	-0.08952549
67	0x3e1496a9	0.14510597
68	0xbe912822	-0.2835093
69	0xbdabda18	-0.083912075
70	0xbe5054b1	-0.20344807
71	0x3c3ac37a	0.011399144
72	0xbeaa3090	-0.33240175
73	0xbe43b53c	-0.19112104
74	0x3cf1ee4d	0.029532576
75	0x3dd89fd9	0.105773635
76	0x3e23f49c	0.1601128
77	0x3e7d2416	0.24720797
78	0x3d54ba96	0.051935755
79	0x3de25b0c	0.11052522
80	0xbdc1b56d	-0.09458432
81	0xbd472d41	-0.048627142
82	0xbe661935	-0.22470553
83	0xbe3f9485	-0.18709
84	0xbd63bd1d	-0.055600274
85	0xbdc257cc	-0.09489402
86	0xbe188f1d	-0.14898343
87	0xb99ba9a5	-0.000296903
88	0xbe9dc48b	-0.30814013
89	0xbd568ea8	-0.05238214
90	0xbd33f266	-0.04393234
91	0x3d96cd53	0.07363381
92	0xbcf1c66d	-0.029513562
93	0x3eaeed18	0.34165263
94	0xbe8e752d	-0.27823773
95	0xbe0a9853	-0.1353467
96	0x3d898609	0.06715018
97	0xbd72b79a	-0.059257127
98	0x3d966f26	0.07345419
99	0x3d0777f3	0.033073377
100	0x3c63a227	0.013893641
101	0xbe8cc8cf	-0.27496955
102	0x3e0e25d2	0.13881615
103	0x3d9fdda1	0.07805944
104	0xbda33db3	-0.079707526
105	0x3e0a0e37	0.13481985
106	0x3e2f9ba2	0.17149213
107	0x3d16c857	0.036812153
108	0xbdb9d33d	-0.09073494
109	0xbd36495e	-0.044503562
110	0xbd311ae8	-0.04323855
111	0xbe79d4e1	-0.24397613
112	0xbe2114cc	-0.1573059
113	0xbece9ef7	-0.40355656
114	0xbe40507d	-0.18780704
115	0x3e6af0c4	0.22943407
116	0x3e3fa72a	0.18716112
117	0x3c388679	0.0112625295
118	0xbea79d03	-0.32736978
119	0x3e31b2d7	0.17353378
120	0xbde35772	-0.11100663
121	0xbe8a692b	-0.27033362
122	0x3dc1eed7	0.09469383
123	0x3e177fb9	0.14794816
124	0x3b43af2c	0.002985905
125	0x3e231a23	0.15927939
126	0xbdd787d0	-0.10523951
127	0xbd0a5b54	-0.033778504
128	0x3ded73ca	0.11594351
129	0xbe86bb61	-0.26314834
130	0xbe3df5c0	-0.18550777
131	0xbddea58c	-0.10871419
132	0xbd82400d	-0.06359873
133	0x3e708f95	0.23492272
134	0x3ead0105	0.3378984
135	0x3d888646	0.066662356
136	0x3e3121a2	0.17297986
137	0x3e12fc11	0.14353968
138	0xbe09104e	-0.13385126
139	0x3dc74c0f	0.09731304
140	0x3e054781	0.13015558
141	0xbce6a7bc	-0.028156154
142	0x3ea567dc	0.323058
143	0x3dd5655d	0.10419724
144	0x3c6846ef	0.014177068
145	0xbe81b0a9	-0.25330094
146	0xbd268632	-0.040655322
147	0xbe98652a	-0.29764682
148	0xbe5f0681	-0.21779825
149	0x3ecfaa40	0.40559578
150	0xbdbc981d	-0.09208701
151	0x3d7a2c18	0.061077207
152	0x3e090f88	0.13384831
153	0xbd7bbcdc	-0.061459407
154	0x3dbdd935	0.092699446
155	0xbce23889	-0.027614849
156	0x3de10f4c	0.10989246
157	0x3c9c025d	0.019044096
158	0xbe9ca860	-0.3059721
159	0x3e219f41	0.15783407
160	0x3d8c9fcc	0.06866416
161	0xbdb97b9f	-0.09056782
162	0x3d3d2bc2	0.04618431
163	0x3cee41da	0.029084135
164	0xbd1896f6	-0.037253343
165	0x3db9e846	0.09077506
166	0x3d5c50cc	0.05378799
167	0x3e4b1a26	0.19834194
168	0x3e5a49f5	0.21317275
169	0xbdc8ce01	-0.09804917
170	0x3e42c254	0.19019443
171	0xbe99b54c	-0.3002113
172	0xbe3e9f94	-0.18615562
173	0xbd8802b4	-0.066411406
174	0xbecc8bae	-0.39950317
175	0xbdeec7f8	-0.11659235
176	0xbe3fd609	-0.18733992
177	0x3e32ad2f	0.17448877
178	0xbe3d2964	-0.1847282
179	0x3e280a48	0.16410172
180	0xbdd913ae	-0.10599457
181	0x3e80e735	0.25176397
182	0x3e252596	0.16127619
183	0x3e9cf40a	0.30654937
184	0xbd26d58d	-0.040731
185	0xbe26b9c4	-0.16281801
186	0xbdda5cfa	-0.10662265
187	0xbe9f79e7	-0.31147692
188	0x3c348180	0.011017203
189	0x3e4ba875	0.1988848
190	0x3d2ec310	0.042666495
191	0x3a3a08f1	0.0007096669
192	0xbdfdd811	-0.12394727
193	0xbe83bbd2	-0.25729233
194	0xbdca30f0	-0.09872615
195	0xbe5618db	-0.20907919
196	0xbdb8dcf4	-0.090265185
197	0x3dc3bf29	0.09557945
198	0x3ead1279	0.33803156
199	0x3e52d884	0.20590407
200	0x3daf1050	0.08548033
201	0xbd8826fd	-0.066480614
202	0x3e5b7a71	0.21433426
203	0xbdd0e447	-0.101997904
204	0x3ea876bd	0.3290309
205	0x3e923593	0.285565
206	0x3d2c3010	0.042038023
207	0xbc297069	-0.010341742
208	0xbd19b812	-0.03752906
209	0xbd627ba5	-0.055293698
210	0xbd606c58	-0.054790825
211	0xbdaab30b	-0.08334931
212	0xbe1724df	-0.14760159
213	0x3dab0076	0.08349697
214	0xbe7b2ddf	-0.24529217
215	0x3d1bc102	0.038025863
216	0x3d4c8a62	0.04993666
217	0x3d6d114c	0.057877824
218	0x3dece695	0.115674175
219	0xbe5fd425	-0.2185827
220	0xbe6c9ad4	-0.23105937
221	0x3dbf8e1a	0.093532756
222	0x3e83327e	0.2562446
223	0xbe85361a	-0.2601784
224	0x3e5dbd81	0.21654321
225	0xbd9e991d	-0.07744048
226	0x3e9435c2	0.28947264
227	0xbe038144	-0.1284228
228	0xbc885ab7	-0.016644819
229	0xbd9eee5a	-0.07760306
230	0x3ef9259a	0.486615
231	0x3e03bab8	0.12864196
232	0xbea23c9c	-0.31686866
233	0xbe0f9ce0	-0.14024687
234	0x3e329984	0.17441374
235	0x3ceaf361	0.028680505
236	0x3ccdaace	0.02510586
237	0x3eaf987c	0.34296024
238	0xbd480048	-0.048828393
239	0xbcf6ac84	-0.030111559
240	0xbd27592e	-0.040856533
241	0xb954fa74	-0.00020311197
242	0x3df10de9	0.11770231
243	0xbe98945d	-0.29800692
244	0xbe8bc7d1	-0.27300885
245	0x3ea0ac33	0.31381378
246	0x3cc521df	0.024064003
247	0xbd2d304b	-0.042282384
248	0xbd0f610f	-0.03500467
249	0xbde916fb	-0.11381336
250	0xbe044585	-0.12917145
251	0x3c91abc2	0.017782096
252	0x3de00864	0.109391004
253	0x3e6fad61	0.23405983
254	0x3d509d6f	0.05093139
255	0xbe15968d	-0.14608212

fc2.weight f4 [128, 256]
0	0x3debd36f	0.11514937
1	0xbea0178d	-0.31267968
2	0xbd9481c7	-0.072513156
3	0x3dbb8ca7	0.09157687
4	0xbc3770ae	-0.0111962985
5	0x3d09b71d	0.033621896
6	0xba0630c7	-0.0005118963
7	0x3e774bf9	0.24150075
8	0x3e053701	0.13009264
9	0x3e01f9c9	0.12692942
10	0xbd3ff765	-0.046866793
11	0xbe6b8d55	-0.23003133
12	0x3e15cb48	0.14628327
13	0xbe7373d2	-0.2377465
14	0x3cfb86a5	0.030703852
15	0x3df1bf41	0.11804057
16	0xbd5822e6	-0.052767657
17	0xbe0210fa	-0.12701789
18	0xbd40f463	-0.047108065
19	0xbe0433ae	-0.12910339
20	0xbdb235dd	-0.0870168
21	0x3e4953be	0.19660851
22	0xbe0ee016	-0.1395267
23	0xbe6791be	-0.2261419
24	0xbdc4d7ab	-0.09611448
25	0xbd83baf4	-0.06432143
26	0xbe42c307	-0.1901971
27	0xbd00e074	-0.031464055
28	0xbb7f8fa9	-0.003899554
29	0xbe4e5e11	-0.20153071
30	0x3d9fca18	0.07802218
31	0xbe8e3b5b	-0.2777966
32	0x3dce1292	0.10062136
33	0xbd25d017	-0.040481653
34	0xbd0d5956	-0.034509026
35	0xbccaabe0	-0.02474016
36	0x3d03ac75	0.03214689
37	0xbd0be32c	-0.034152195
38	0xbe06a86d	-0.13150187
39	0xbe10bd38	-0.14134681
40	0x3d05097b	0.032479744
41	0xbe2d43ad	-0.16920348
42	0xbdf96111	-0.12176717
43	0xbe4bf73c	-0.19918531
44	0x3df339a3	0.11876228
45	0xbd93fc21	-0.07225824
46	0x3e041bf2	0.12901285
47	0xbe02505b	-0.12725966
48	0xbcd5c77a	-0.026096094
49	0xbd7f54b0	-0.062336624
50	0x3d0f3c68	0.034969717
51	0xbec2dba9	-0.38058212
52	0x3d75f2b3	0.06004591
53	0x3d4a86c2	0.04944492
54	0xbc11a421	-0.008889229
55	0xbcf22c9c	-0.029562287
56	0xbe05e1a3	-0.13074355
57	0xbeb1b69a	-0.34709626
58	0xbd7147ae	-0.05890625
59	0xbcac3753	-0.021022474
60	0xbdc47711	-0.095930226
61	0x3c290d9a	0.010318184
62	0xbee9ccda	-0.45664102
63	0x3d6d5d92	0.057950564
64	0x3dd96623	0.10615184
65	0x3da58b29	0.08083183
66	0x3d6b1529	0.057393227
67	0xbccdb756	-0.025111835
68	0xbcedc4a1	-0.029024424
69	0xbd22fdac	-0.0397927
70	0xbc1e226a	-0.00965176
71	0xbe3bb60c	-0.18331164
72	0xbe3fbfb5	-0.18725474
73	0x3e466abf	0.19376658
74	0xbc9bece4	-0.019033857
75	0x3cb62a5a	0.022236992
76	0xbe436bb7	-0.19084059
77	0xbe3b9552	-0.1831868
78	0x3d7f9790	0.0624004
79	0xbd9e6e64	-0.07735899
80	0xbc1cb128	-0.009563722
81	0xbef0bb1c	-0.47017753
82	0xbda1950b	-0.07889756
83	0x3da199d2	0.07890667
84	0xbcd2068c	-0.025637887
85	0xbdbcd9dc	-0.09221241
86	0xbb556521	-0.0032561498
87	0x3d80fe5c	0.06298515
88	0x3dc656da	0.09684534
89	0x3dbcd856	0.0922095
90	0xbcf6f63a	-0.030146707
91	0xbc29e32d	-0.010369104
92	0xbe794397	-0.2434219
93	0x3c218c1e	0.009860067
94	0xbc57fffa	-0.013183588
95	0xbe0f6064	-0.14001614
96	0x3e4f1d32	0.20225981
97	0xbda9d21e	-0.0829203
98	0x3dba02e8	0.090825856
99	0xbe826348	-0.2546637
100	0xbcd87f05	-0.026427755
101	0x3d402231	0.046907607
102	0xbdfce330	-0.1234802
103	0x3def2794	0.11677471
104	0x3c3cafc2	0.011516513
105	0x3e1218e2	0.14267305
106	0xbece34a6	-0.40274543
107	0x3e97ac75	0.29623762
108	0x3dff175d	0.12455628
109	0x3e06e79e	0.13174292
110	0xbd3eaa5e	-0.046549194
111	0xbd0997fb	-0.033592205
112	0xbdd61043	-0.104523204
113	0xbd764caa	-0.060131706
114	0x3e0a781c	0.1352238
115	0x3bd0848f	0.0063634585
116	0x3cd317bd	0.025768155
117	0xbde62189	-0.11236865
118	0x3e48db2a	0.19614854
119	0x3d8be2a3	0.06830337
120	0x3e3d4877	0.18484674
121	0xbde38d3d	-0.111109234
122	0xbe4c8bb9	-0.19975175
123	0xbd7d314d	-0.061814595
124	0x3d84ee45	0.06490759
125	0xbdb7091a	-0.08937283
126	0xbdf59878	-0.11991972
127	0xbc163d14	-0.009169836
128	0xbd90c61d	-0.07069037
129	0xbe938d88	-0.28818917
130	0xbd522920	-0.05130875
131	0xbc8998c8	-0.016796485
132	0x3dfa48d8	0.12220925
133	0x3e2f6b32	0.17130736
134	0x3da3f032	0.08004798
135	0xbdd1f8ad	-0.10252509
136	0x3dae8784	0.08521941
137	0xbe8c9205	-0.27455154
138	0xbed69843	-0.4191304
139	0xbb4a520e	-0.0030871662
140	0xbe69b0d7	-0.22821365
141	0x3df7694e	0.12080632
142	0xbd47c73c	-0.04877399
143	0xbe646333	-0.22303466
144	0x3d6f891f	0.05848038
145	0x3e446c43	0.19181924
146	0x3da79dc6	0.0818439
147	0xbdde9557	-0.10868328
148	0xbd453c8a	-0.048153438
149	0xbe451432	-0.19245985
150	0x3e253289	0.16132559
151	0xbbb36a2a	-0.005475302
152	0xbdf3dfb4	-0.11907902
153	0xbbe31426	-0.006929892
154	0x3e386d8e	0.18010542
155	0x3d9816ac	0.07426199
156	0xbe3b0ae8	-0.18265879
157	0xbdb40f77	-0.08792012
158	0xbe982f07	-0.2972338
159	0x3d46aae1	0.048502807
160	0xbe856a5a	-0.26057702
161	0x3c4bb45d	0.012433139
162	0x3d8c3def	0.068477504
163	0xbd32683e	-0.043556444
164	0x3e821b6a	0.2541154
165	0xbe1f5e56	-0.1556333
166	0xbd39b978	-0.045342892
167	0xbd7bb3fd	-0.061450947
168	0xbdca87d2	-0.09889187
169	0x3e8e1b5f	0.27755257
170	0xbcb0b20d	-0.021569276
171	0xbde8739a	-0.11350174
172	0xbe727d72	-0.23680666
173	0xbdf0981d	-0.11747763
174	0xbd80acf4	-0.06282988
175	0xbe297ec9	-0.16552271
176	0x3db9b706	0.09068112
177	0xbcd5bb0a	-0.026090164
178	0xbde7345a	-0.11289282
179	0x3ae8b506	0.0017754145
180	0x3d78c0a6	0.0607306
181	0x3d1c3de2	0.038144954
182	0x3d80eaa0	0.06294751
183	0xbe60e75d	-0.21963258
184	0x3e2bbcf4	0.16771299
185	0xbe53dbc8	-0.20689309
186	0x3dba3bf2	0.09093465
187	0xbe495077	-0.19659601
188	0xbef5adc7	-0.47984144
189	0x3dc0f2e7	0.0942133
190	0xbe20321b	-0.15644114
191	0x3de52f30	0.11190641
192	0xbe263e8c	-0.16234797
193	0xbccf98a8	-0.025341347
194	0xbcd10994	-0.025517263
195	0x3d053d4a	0.032529153
196	0xbe4bde60	-0.19909048
197	0xbedc9e31	-0.4308944
198	0xbd27368a	-0.040823497
199	0xbc8e2f9e	-0.01735669
200	0x3d38bed0	0.045103848
201	0xbdfefb55	-0.124502815
202	0x3bbb99c4	0.0057251174
203	0xbd9ee7dc	-0.077590674
204	0xbd4d50d1	-0.0501259
205	0x3e08fbf0	0.13377357
206	0xbcf7e334	-0.030259706
207	0x3e341c2a	0.17588869
208	0xbe44dff4	-0.19226056
209	0x3d490930	0.049081028
210	0xbcb7e4f1	-0.022448035
211	0xbd287333	-0.041125488
212	0x3c8ccf4c	0.01718869
213	0x3da1fc52	0.079094544
214	0x3e270429	0.1631018
215	0xbd598db7	-0.053113665
216	0xbd4f033b	-0.05054019
217	0x3dd0b264	0.10190275
218	0x3da4ae50	0.0804106
219	0xbe786ee8	-0.24261057
220	0xbe012044	-0.12609965
221	0x3da72561	0.08161426
222	0x3e18f386	0.14936647
223	0x3e8a97f2	0.2706905
224	0xbda36764	-0.079787046
225	0xbe1d8db5	-0.15386088
226	0xbe57d081	-0.21075632
227	0x3d44a3d9	0.04800782
228	0xbb863505	-0.004095676
229	0xbe13eee0	-0.14446592
230	0xbd77d51d	-0.060505975
231	0x3d2a04c8	0.041508466
232	0xbe9c3635	-0.30510107
233	0x3d9c95d7	0.07645767
234	0xbdbbdfda	-0.09173556
235	0xbe51ca43	-0.20487313
236	0x3d8729bd	0.06599758
237	0xbd3078ae	-0.04308384
238	0xbc1f2462	-0.009713264
239	0xbcde7ed9	-0.027160095
240	0xbb4f1138	-0.0031595957
241	0x3e38d738	0.1805085
242	0xbabb065b	-0.0014268862
243	0xbd3c097a	-0.045907475
244	0x3bb01163	0.0053731664
245	0x3d1a0312	0.037600584
246	0x3dd3b647	0.10337501
247	0xbbc178af	-0.005904279
248	0xbd516bed	-0.051128317
249	0x3dc533d2	0.096290246
250	0x3dbc8dda	0.092067435
251	0xbe8d19a4	-0.27558625
252	0x3da63c44	0.081169635
253	0x3af91ee3	0.0019006397
254	0xbd30d119	-0.04316816
255	0x3e0a2204	0.13489538

fc2.bias f4 [128]
0	0xbbf7b3e3	-0.007559286
1	0xbdc812ca	-0.09769209
2	0x3d5ac53f	0.053410765
3	0x3e11d4c6	0.14241323
4	0x3daf664d	0.08564434
5	0xbd6b1984	-0.05739738
6	0x3c758271	0.014984713
7	0xbda72676	-0.08161633
8	0xbe25cfc2	-0.16192535
9	0x3d9cdbb2	0.07659091
10	0x3c85d227	0.01633556
11	0x3df5a20d	0.11993799
12	0xbe3211bc	-0.17389578
13	0xbdc3cff5	-0.09561149
14	0xbd0ebe0d	-0.034849215
15	0xbe2f3c38	-0.17112815
16	0xbdfb3e06	-0.122676894
17	0xbdd44dff	-0.10366439
18	0xbe4ffdaa	-0.20311609
19	0x3d26a7b4	0.040687278
20	0xbdc334e2	-0.09531571
21	0x3cab0889	0.020878093
22	0xbcb7f41e	-0.022455271
23	0xbcf83817	-0.030300183
24	0x3d362374	0.044467404
25	0xbc52e8d4	-0.012872893
26	0xbe4f94ad	-0.20271559
27	0x3d96bf7a	0.0736074
28	0x3cd67cc4	0.02618254
29	0xbe02c728	-0.12771285
30	0xbc912fe3	-0.01772303
31	0x3de1f965	0.11033896
32	0xbc9a364f	-0.018824724
33	0xbda61e90	-0.08111298
34	0x3c6ed845	0.01457793
35	0x3d58ecd4	0.052960232
36	0xbe64248d	-0.22279568
37	0xbdb7fc22	-0.089836374
38	0xbe089d3a	-0.13341227
39	0xbd9d787e	-0.07688998
40	0xbd4aaf74	-0.04948373
41	0xbc57f689	-0.013181337
42	0x3d14b940	0.03630948
43	0xbba54c92	-0.0050445283
44	0xbd830fd2	-0.06399502
45	0x3d76fb4e	0.060298257
46	0x3ca30953	0.019901907
47	0x3e6f4c11	0.23368861
48	0xbc9c0e44	-0.019049771
49	0xbdacf54e	-0.08445226
50	0xbd7bd324	-0.061480656
51	0xbe30b43a	-0.17256251
52	0xbe440fc0	-0.19146633
53	0x3daa73fa	0.08322902
54	0xbd8ee0c7	-0.069764666
55	0x3e000f29	0.12505783
56	0x3dd2ffc6	0.10302691
57	0xbd9b5b05	-0.0758572
58	0xbd915131	-0.07095564
59	0xbd819d4f	-0.06328832
60	0xbccc4ff7	-0.024940474
61	0xbdea799a	-0.11448975
62	0x3db55694	0.08854404
63	0xbe1960c7	-0.14978324
64	0xbd1a477c	-0.03766583
65	0x3e21c8fa	0.15799323
66	0xbe04190d	-0.12900181
67	0xbd9739bc	-0.07384059
68	0xbaba30ff	-0.0014205276
69	0x3e5af743	0.21383385
70	0x3e6250fe	0.22101209
71	0xbd93440e	-0.07190715
72	0x3dc6382d	0.096786834
73	0xbb8ec53b	-0.004357008
74	0x3d1fad5e	0.038983695
75	0x3db678c1	0.08909751
76	0xbda8d162	-0.082430616
77	0x3d5bd186	0.053666614
78	0xbe23919b	-0.15973513
79	0x3d3fe681	0.046850685
80	0x3dc36376	0.09540455
81	0xbd853acb	-0.065053545
82	0x3d032eec	0.03202717
83	0x3d97ab02	0.07405664
84	0x3ded8b5a	0.11598845
85	0x3dc0db5f	0.09416842
86	0xbe1cc2a1	-0.1530862
87	0x3dc4b689	0.09605128
88	0xbd57fd93	-0.05273206
89	0x3d1bbdea	0.038022913
90	0x3e069d43	0.13145928
91	0x3e3b6678	0.18300807
92	0x3db2002e	0.086914405
93	0xbd75f8df	-0.060051795
94	0x3d9e594c	0.07731876
95	0x3de3bdf5	0.11120216
96	0x3dbc0365	0.09180335
97	0xbc890b7f	-0.016729115
98	0x3da4657b	0.08027168
99	0x3d2a6ad8	0.0416058
100	0x3ce27cef	0.027647464
101	0xbd10e695	-0.03537615
102	0xbe0a5c66	-0.1351181
103	0x3e074618	0.13210332
104	0x3d9ec61c	0.0775263
105	0xbe26bb33	-0.16282348
106	0xbe17ef4a	-0.14837375
107	0x3d7223d4	0.0591162
108	0xbdd243a8	-0.10266811
109	0x3ca22550	0.019793183
110	0xba0eceb3	-0.00054476707
111	0xbe228224	-0.15869957
112	0xbdeb9e62	-0.115048185
113	0x3e7956ef	0.24349569
114	0xbc4591cb	-0.0120586855
115	0xbcf16303	-0.029466158
116	0xbdbd857d	-0.092539765
117	0xbdca2a47	-0.09871345
118	0xbbf52f8a	-0.0074824737
119	0xbc4bdd6e	-0.01244293
120	0x3cc40cf7	0.023931963
121	0x3ddeeb9a	0.10884781
122	0x3df42358	0.11920804
123	0x3cfed417	0.031106992
124	0xbdbb0785	-0.091322936
125	0xbd08f2d5	-0.033434708
126	0xbd9d3e5e	-0.07677911
127	0xbdaa16c6	-0.08305125

fc3.weight f4 [2, 128]
0	0x3f44689c	0.7672212
1	0x3d31965e	0.043356292
2	0x3cbc22f6	0.02296589
3	0x3e4459cf	0.19174884
4	0x3d8cc100	0.06872749
5	0xbd3c9136	-0.04603692
6	0xbdc2143a	-0.09476514
7	0x3c28465c	0.010270681
8	0xbdc4bda4	-0.096064836
9	0x3e908548	0.28226686
10	0x3e33cbe4	0.17558247
11	0xbe251e7a	-0.16124907
12	0xbd0248b1	-0.031807605
13	0xbd6850e0	-0.056717753
14	0xbc2677ee	-0.010160429
15	0x3f31cc6b	0.6945254
16	0x3d84ba42	0.06480838
17	0xbdace136	-0.08441393
18	0x3c0fbf5f	0.008773654
19	0x3e705bac	0.2347247
20	0xbd4ca60f	-0.049963053
21	0x3e3b2d34	0.18278962
22	0xbc006351	-0.007836179
23	0x3d6e8bcf	0.0582388
24	0x3e1ac4f3	0.15114193
25	0x3e034ef6	0.1282309
26	0xbe06f748	-0.13180268
27	0x3c65f0de	0.014034478
28	0xbce44a44	-0.027867444
29	0xbe32b233	-0.1745079
30	0xbd911f6c	-0.07086071
31	0x3df4bec6	0.1195045
32	0x3d64f6fa	0.055899598
33	0x3eb21d68	0.3478806
34	0x3e156560	0.14589453
35	0x3d83184d	0.064011194
36	0xbd890ca3	-0.066918634
37	0xbca27d33	-0.01983509
38	0xbdb92cdc	-0.09041759
39	0xbde05bcf	-0.10955011
40	0xbd170234	-0.036867335
41	0xbd9c021b	-0.07617589
42	0x3a5bbbe5	0.00083821855
43	0xbd888d4c	-0.06667575
44	0xbe8922fe	-0.2678451
45	0x3dfd1cce	0.1235901
46	0x3dec1ffb	0.11529537
47	0xbc9039d0	-0.017605692
48	0xbc328ba3	-0.01089755
49	0x3e414f42	0.1887789
50	0x3e2beed2	0.16790321
51	0x3f58a70e	0.84629905
52	0x3f81be43	1.0136188
53	0x3e99ff96	0.3007781
54	0x392c1991	0.00016412722
55	0x3db3b3e0	0.08774543
56	0x3e2d4bb9	0.16923417
57	0xbee9ac15	-0.456391
58	0x3c5afaa3	0.0133654205
59	0x3c4ba529	0.012429514
60	0x3e787a1a	0.24265328
61	0x3de01cf3	0.109430216
62	0xbb6d8511	-0.0036242644
63	0x3f08eb73	0.53484267
64	0xbdd4427e	-0.10364245
65	0x3bc8ca88	0.006127659
66	0xbe465741	-0.19369222
67	0xbd753dd5	-0.05987342
68	0xbd4962fd	-0.04916667
69	0x3d5ec0e2	0.054383166
70	0xbcbf2392	-0.023332391
71	0x3b512428	0.003191242
72	0x3de26c62	0.11055829
73	0x3b474a18	0.0030409154
74	0xbe33347b	-0.17500488
75	0x3d6feb9b	0.0585743
76	0xbe037658	-0.12838113
77	0xbe1f409c	-0.1555199
78	0xbd87fe19	-0.06640262
79	0x3cd51408	0.026010528
80	0x3da6af79	0.081389375
81	0xbe8ec78b	-0.27886614
82	0x3e10daa3	0.14145903
83	0x3b862e3b	0.0040948666
84	0x3db04bf8	0.0860824
85	0x3dca4cc8	0.09877926
86	0x3bfe3628	0.007757921
87	0x3dbb1a12	0.09135832
88	0xbdbca731	-0.09211577
89	0x3dcd13cf	0.10013544
90	0xbd640cd7	-0.055676308
91	0x3cc2a725	0.023761341
92	0x3e214f8c	0.15753001
93	0x3dff44c8	0.12464291
94	0x3d7da093	0.061920714
95	0x3de6f2b9	0.112767644
96	0x3d4fa996	0.05069884
97	0xbd434c59	-0.047680233
98	0x3d9745fc	0.07386395
99	0x3e62433b	0.22095959
100	0x3df63477	0.120217256
101	0x3d5a7385	0.053332824
102	0x3d781d0f	0.060574587
103	0xbb9ae6d4	-0.004727224
104	0x3b882944	0.00415531
105	0xbcf1a555	-0.029497782
106	0xbdac6fc0	-0.08419752
107	0x3e0242c8	0.12720788
108	0x3e359f96	0.17736658
109	0x3ebd14ae	0.3692984
110	0x3e1789ad	0.14798613
111	0xbd96eb86	-0.07369141
112	0xbd912f4c	-0.07089099
113	0x3d76c935	0.06025048
114	0xbe0afb56	-0.1357244
115	0x3d8c5264	0.06851652
116	0xbe5c3483	-0.21504407
117	0x3db6ac79	0.08919615
118	0xbda24449	-0.079231806
119	0xbeb27177	-0.34852192
120	0xbe8e5c3f	-0.27804753
121	0x3e155e19	0.14586677
122	0xbe28220f	-0.16419242
123	0x3e2d3f08	0.16918576
124	0x3e99b695	0.30022112
125	0xbe103fb6	-0.14086804
126	0xbd5dabf7	-0.054119077
127	0xbdb55bc0	-0.088553905
128	0xbc360891	-0.011110441
129	0x3edefed5	0.43553796
130	0xbea3615c	-0.31910217
131	0x3dab9ac0	0.083791256
132	0x3d7fd465	0.062458415
133	0x3e07c253	0.13257723
134	0x3d93ed33	0.072229765
135	0xbd8bef4e	-0.06832753
136	0x3e9eea0e	0.31037945
137	0xbe0faa86	-0.14029893
138	0x3d879f31	0.0662216
139	0xbe84227b	-0.25807557
140	0x3db0a13c	0.08624503
141	0x3d13c307	0.036074664
142	0xbd26c779	-0.040717576
143	0x3dc60ba8	0.09670192
144	0x3e4ce9cd	0.20011063
145	0x3df16ed9	0.11788721
146	0x3e940880	0.28912735
147	0x3e3c7fde	0.18408152
148	0x3bed3343	0.007238777
149	0x3ea95ccd	0.33078614
150	0xbd8bc744	-0.06825116
151	0x3ea19a92	0.3156324
152	0x3fb2fa1a	1.3982575
153	0xbe3970b8	-0.18109405
154	0x3e5857d7	0.21127258
155	0x3e63eb2f	0.22257684
156	0x3e1d918c	0.15387553
157	0x3adbaa87	0.0016759195
158	0xbd3f8c93	-0.04676492
159	0xbcaab5b9	-0.020838605
160	0x3d70c8b5	0.05878516
161	0xbdb6faa7	-0.08934527
162	0xbe92b74e	-0.28655475
163	0xbe952ab1	-0.29134133
164	0x3e51fae9	0.20505871
165	0xbd32f2db	-0.043688636
166	0x3d029f54	0.03189023
167	0xbcb73e1c	-0.022368483
168	0x3e452d4b	0.19255559
169	0x3f20aa58	0.62759924
170	0xbd7e86e3	-0.062140357
171	0x3e2e08aa	0.16995493
172	0xbdabe07a	-0.08392425
173	0xbc453027	-0.012035406
174	0x3ca70c16	0.020391505
175	0xbe0c22c0	-0.13685131
176	0xbd9f3f91	-0.07775796
177	0x3def9ea4	0.1170018
178	0x3f673f3e	0.90330875
179	0xbdfc96c8	-0.12333447
180	0xbde4c75c	-0.11170837
181	0xbdcd7661	-0.100323446
182	0xbda6f5e9	-0.081523724
183	0x3d4927cb	0.049110215
184	0xbd0418df	-0.03225028
185	0xbe840613	-0.25785884
186	0x3dbef699	0.093243785
187	0x3f225185	0.6340564
188	0xbea37e46	-0.31932276
189	0x3e0d7c27	0.13816892
190	0xbda13c1b	-0.07872792
191	0x3ec053c6	0.37563914
192	0x3e053055	0.13006718
193	0x3e9c3ceb	0.30515227
194	0xbd0d5817	-0.034507837
195	0xbe379a62	-0.17929986
196	0xbe35d374	-0.17756444
197	0xbe49fd92	-0.19725636
198	0xbefcae9f	-0.49351975
199	0xbe11df78	-0.14245403
200	0xbd2f6ccc	-0.042828366
201	0xbd9e5091	-0.077302106
202	0xbbb275ea	-0.0054461854
203	0x3e7ebda3	0.24877028
204	0x3dc161bd	0.0944247
205	0xbd4b7e41	-0.049680952
206	0x3e877f8b	0.26464495
207	0xbd012aaa	-0.03153483
208	0xbd2c1a96	-0.04201754
209	0xbe29dcc2	-0.16588119
210	0x3dd75287	0.10513788
211	0xbe9bfe40	-0.30467415
212	0xbdc5cf64	-0.09658697
213	0xbe323c7c	-0.17405885
214	0x3eb21b7e	0.347866
215	0xbd721386	-0.05910065
216	0x3e500950	0.20316052
217	0xbd89b8ed	-0.06724725
218	0xbc496766	-0.0122927185
219	0x3d493d82	0.049130924
220	0xbe45e034	-0.19323808
221	0x3e03c669	0.12868656
222	0xbdf990c9	-0.12185819
223	0x3d21d07e	0.039505474
224	0x3e2da8f3	0.1695898
225	0xbde74c34	-0.112938315
226	0xbd3d33cb	-0.04619197
227	0x3e33e714	0.17568618
228	0x3f187f10	0.5956888
229	0x3ebc8f33	0.36828002
230	0x3e8c2ba6	0.2737705
231	0xbe731bea	-0.23741117
232	0xbd63bc1e	-0.055599324
233	0xbf2a7259	-0.6658073
234	0x3e1e0f36	0.1543549
235	0x3d2c7cd8	0.042111248
236	0xbbfd4d6a	-0.0077301757
237	0x3d025dbd	0.031827677
238	0xbb837f2d	-0.0040129633
239	0x3e1334bc	0.14375585
240	0x3d1ebed4	0.038756207
241	0xbe7f48b3	-0.24930076
242	0xbbe1b2a7	-0.006887752
243	0xbe1deb70	-0.15421844
244	0xbe238312	-0.15967968
245	0x3e9720fc	0.29517353
246	0xbdeb6114	-0.114931256
247	0x3ec6ff7c	0.38866794
248	0xbe24c544	-0.16090876
249	0xbe211e3a	-0.15734187
250	0xbf35a916	-0.7096113
251	0xbdde4376	-0.10852711
252	0x3db8ffa5	0.09033135
253	0x3ee34933	0.44391784
254	0x3df3ff3a	0.11913915
255	0xbe8f72a5	-0.28017154

fc3.bias f4 [2]
0	0x3da9b336	0.08286135
1	0xbe113af3	-0.14182644
