checkpoint_critic.pth (torch_old, 159656 bytes, 5 tensors)

fcs1.weight f4 [256, 24]
000000 b3 42 00 bd 86 bb 47 bc c0 ef dd 3c 45 79 82 bc
       -0.03131361 -0.012190705 0.02709186 -0.015926966
000010 dc a8 e1 bd 6c 47 28 be 74 60 a9 bc d3 a1 53 3d
       -0.110185355 -0.16433495 -0.020675875 0.051668
000020 8b 6e 44 bd a8 9a 77 3c 42 14 42 bd 3c 20 06 3d
       -0.047956984 0.0151125565 -0.0473826 0.032745585
000030 84 2b 9c 3d 02 4a a1 bd aa dd 56 3d 88 e1 27 3d
       0.076254874 -0.07875444 0.05245749 0.040986568
000040 8b eb e0 bc 9f f7 e0 bc ab a9 22 3d f9 0c cc bc
       -0.027456066 -0.027461825 0.03971259 -0.02490853
000050 88 65 84 3c 1f b7 11 3e 67 d5 63 bd 49 5d 26 3b
       0.016161695 0.14230011 -0.05562344 0.0025385192
000060 48 d4 88 3c 5d 5c 14 3d ff 24 94 bb 4e 5f 7a 3b
       0.016702786 0.036220897 -0.004521012 0.0038203779
000070 03 fb d2 bd ae ec 80 bd 55 7c 24 3d 62 bb 8e bc
       -0.10301783 -0.06295143 0.040157635 -0.017423335
000080 9d 0b 6d bc 09 60 21 ba 8b e5 8e 3c f2 fc b4 3d
       -0.014468101 -0.0006155973 0.017443439 0.08837308
000090 00 98 14 bd 0d 1e 36 bd 66 61 98 bc 32 c8 b0 3d
       -0.03627777 -0.044462252 -0.01860113 0.08631934
0000a0 04 45 bc 3c b7 a1 f3 3c 82 ba 9f bc 4d 8c 62 bd
       0.022982128 0.029740198 -0.019498114 -0.055309583
0000b0 7d a9 00 3e e7 53 35 be da be bb 3c b4 71 e0 bc
       0.12564655 -0.17707787 0.022918154 -0.027397968
0000c0 5d a8 a8 3a 26 4e 72 3d 08 6d 8b 3b 3d a9 0d bd
       0.0012867559 0.05915656 0.004254941 -0.034585226
0000d0 b6 d0 1f bd ad df 87 be 3f 63 d1 3c f6 73 ad bc
       -0.0390174 -0.2653784 0.02556002 -0.021173459
0000e0 16 03 11 bd ee e9 8a 3d 32 18 ec bb a0 ac 54 bd
       -0.035403334 0.067829 -0.0072050327 -0.05192244
0000f0 78 13 8f 3b 5a 55 0a bf de 03 ea 3b ca b9 c9 3c
       0.0043663345 -0.54036486 0.0071415743 0.024624724
000100 2a e5 14 bd f4 79 cd bc 06 c5 de 3c 8d 0c 3d 3c
       -0.03635136 -0.025082566 0.027193557 0.011538637
000110 73 17 f3 3c cc b5 7b be 7b 51 03 bd 93 41 65 3c
       0.029674267 -0.24581069 -0.032060128 0.013992685
000120 23 24 6b 3d 99 8c a3 3b e2 4f 02 bb 93 f3 d0 3d
       0.05740751 0.004991126 -0.001988404 0.10202708
000130 4e 6e 70 bd fa e4 98 bb e0 ff 14 3c 49 59 fa 3d
       -0.058698945 -0.004665968 0.0090942085 0.12224061
000140 58 13 02 3d 4d ec 3c 3d 91 2b 09 bd 5d a6 91 3d
       0.03175673 0.04612379 -0.033488814 0.071118094
000150 42 f4 82 3d 98 b9 08 be 3e a6 f9 3c 50 14 d7 bb
       0.06394245 -0.13352048 0.030474778 -0.0065637007
000160 a5 cb ac 3b a0 fd 84 3b c5 be 50 bb 51 63 9f bd
       0.0052732998 0.004058555 -0.0031851989 -0.07782615
000170 b9 de d0 3d 5f 81 30 be ed 10 42 3c 5b 21 b0 bd
       0.10198731 -0.17236851 0.011844856 -0.08600112
000180 59 49 d9 3c fc 3f 21 be d8 66 fd bc b6 16 92 3d
       0.026524233 -0.15747064 -0.030932829 0.07133238
000190 c5 32 06 bb ef 15 bc bd 70 d2 f3 3c 46 83 d5 3c
       -0.0020477038 -0.09183871 0.02976343 0.026063573
0001a0 60 91 53 bd bd de 01 be 7f 13 29 3c c1 6a 97 bd
       -0.051652312 -0.12682624 0.01031959 -0.073934086
0001b0 21 b3 9d 3d 96 2d 26 bd bb 57 3c bc d5 91 bc 3c
       0.07700182 -0.040570818 -0.011495526 0.023018757
0001c0 e0 21 d0 3c 83 88 14 be 49 13 c7 bc b2 fa c0 bc
       0.025406778 -0.145052 -0.024301188 -0.02355704
0001d0 c2 70 13 bd d8 7c 62 3e d1 c4 8b 3c 3d 09 87 bd
       -0.035996206 0.22117937 0.017061623 -0.06593559
0001e0 e2 21 43 3d 7f 50 a4 bd 75 96 74 3c 29 4e fb 3b
       0.047639735 -0.08023166 0.01492845 0.0076692295
0001f0 d3 39 e8 3d ef 2f 17 3d ac 43 d4 bc 41 03 0a bd
       0.11339154 0.036910947 -0.025911175 -0.03369451
000200 21 61 8b 3d 98 d0 81 bd a8 59 7c 3c 35 94 11 bb
       0.06805635 -0.06338614 0.015402235 -0.0022213582
000210 76 90 0d bc 95 25 ba 3d d9 e6 18 bc 56 69 d3 bc
       -0.008640399 0.090891995 -0.009332382 -0.025807064
000220 b1 73 98 3c d6 af e8 ba 2b 6e 72 bb 1c c9 da 3c
       0.018609853 -0.0017752599 -0.0036991935 0.026707225
000230 af 95 36 be c4 26 3b 3e a9 3c 43 3c ef b6 3d bd
       -0.17830537 0.18276507 0.011916318 -0.046317037
000240 0e e4 87 3d 40 a2 67 3e 7e 06 a6 bc fa b2 81 3d
       0.06635295 0.22620487 -0.020266768 0.06332965
000250 e6 e0 ab bd 91 ad 84 3d 22 cf a6 3c 76 48 ef 3d
       -0.08392505 0.06478418 0.02036244 0.11683743
000260 11 2e 3a 3d 54 a3 50 3e 3b 61 3b 3d 38 5b 29 3d
       0.04545409 0.20374805 0.045747023 0.04134676
000270 95 eb b2 bd f1 dd 80 bd 8b 96 12 bd 6d 6b b3 bb
       -0.0873634 -0.06292332 -0.0357881 -0.0054754526
000280 0d a3 44 3d 14 27 47 3e ca c4 e7 bb 55 e5 ee bd
       0.04800706 0.19448501 -0.0070730196 -0.11664835
000290 7b a7 c8 ba 63 18 53 be 40 cf 1e bc 65 4a 9a bd
       -0.0015308702 -0.20614772 -0.009692967 -0.07533721
0002a0 cd 99 ba b9 73 da cd bd a6 d6 a0 bc 71 46 17 3d
       -0.00035591275 -0.100514315 -0.019633602 0.036932413
0002b0 d7 c3 99 bd d5 c5 42 bd 17 33 69 3c 75 f5 73 3d
       -0.075080566 -0.04755195 0.014233372 0.059560258
0002c0 60 32 47 3d 2e 2e 99 bd 22 c3 21 bd 0c 34 f9 bc
       0.048632026 -0.07479511 -0.039492734 -0.030420326
0002d0 eb 3b 49 bd 27 c8 f7 bc 3e 60 03 3d 5f 49 21 3d
       -0.049129408 -0.030246807 0.032074206 0.039376613
0002e0 fb 60 a2 3b 33 64 bc bd 5f cf 39 bb 34 86 cd 3c
       0.0049554086 -0.09198799 -0.0028352363 0.025088407
0002f0 a2 20 d3 bc 25 47 1f 3e 88 db 99 3c 2b 63 2b bc
       -0.025772396 0.15554483 0.018781438 -0.010460655
000300 fa be a3 3d 4e cd 67 bd 4b 99 59 bc 64 6a 82 bc
       0.0799541 -0.05659228 -0.013281177 -0.015919872
000310 24 fd 27 3e 07 12 a4 3d f6 5e 00 3c 32 86 24 bd
       0.16405159 0.08011251 0.00783514 -0.04016704
000320 a8 b7 21 bc d5 13 c0 bd e3 04 3a 3d 49 a0 12 bc
       -0.009870447 -0.09378783 0.045414817 -0.008949348
000330 bd f2 b4 3a f0 e2 04 3e 83 e4 1c bd b2 96 b3 bd
       0.0013805252 0.12977195 -0.038303863 -0.08768977
000340 35 eb 10 3d b5 1a 23 be b3 6c a1 3b 00 50 a5 bc
       0.03538056 -0.15928157 0.004926288 -0.020179749
000350 ea b0 54 bd 5f f7 bf 3d 71 ca df 3b 7b ee 36 bd
       -0.05192653 0.09373354 0.006829553 -0.044661026
000360 d1 40 ed bc d7 9c da bd c7 2a 11 bd cb 90 89 3b
       -0.028961571 -0.10674446 -0.035441186 0.004198169
000370 08 41 9c bd 6b 31 b4 bd 71 39 05 3d 32 3a 77 bb
       -0.07629591 -0.08798488 0.032525484 -0.0037723896
000380 92 27 aa 3d 57 34 cb bd 14 68 05 3d f7 c8 4d 3c
       0.08308329 -0.099220924 0.03256996 0.012560121
000390 cf 03 d0 bd c1 b7 74 bd 86 11 12 bd 00 79 07 3b
       -0.101569764 -0.059745554 -0.035661243 0.0020671487
0003a0 df 09 8c 3c 00 a1 45 bd 47 24 20 bd 76 6c 47 3c
       0.01709455 -0.048249245 -0.039097097 0.012171855
0003b0 9a b5 1e be cf 8b 8a 3d 1f 9e 2a 3d 32 78 c3 bc
       -0.15498963 0.067649476 0.041654702 -0.023861025
0003c0 04 f6 fc 3a 72 2c ff bc 98 55 c5 3b 3e 8d 2c bd
       0.0019299393 -0.031149123 0.0060221665 -0.042126887
0003d0 56 b7 5a 3c aa 51 be 3d cf f8 e8 bb 66 5b e6 3b
       0.013349375 0.0929292 -0.0071097384 0.0070299385
0003e0 d6 4b 4e 3c 52 74 bd bd 2b a7 1f 3d 52 12 fa 3c
       0.012591323 -0.09250702 0.038977783 0.030526314
0003f0 ee bb a5 3d bf 90 9b bc 91 3c 3a bd 00 55 32 3d
       0.08092485 -0.018989919 -0.045467917 0.043538094

fcs1.bias f4 [256]
000000 04 09 de bd 57 a6 0e 3e 1e 91 22 3e d9 cb 29 3e
       -0.10841563 0.13930641 0.1587567 0.16581668
000010 6b e2 c5 bc 8f a6 b9 be 51 88 c5 bd dd d7 0c be
       -0.024155816 -0.36259887 -0.09645141 -0.1375422
000020 3b 42 5c be ee 72 69 be 36 5b e3 3d 83 21 a5 3d
       -0.2150964 -0.22797748 0.111013815 0.080630325
000030 55 dd 09 3e d4 81 9d be be 77 68 3c 4d 1b 1e 3e
       0.13463338 -0.30763113 0.014188705 0.15440102
000040 30 b4 7a 3d fd d9 5c bc e6 50 15 be 2d 5e 92 be
       0.061206996 -0.013479707 -0.14581642 -0.28587475
000050 9b 57 6a bc 25 94 b1 be 95 1d d9 bd c7 66 05 be
       -0.014303113 -0.34683338 -0.106013454 -0.13027488
000060 5c 07 ce bd a8 8b 66 be fd 05 16 3e 58 14 0b bd
       -0.100599974 -0.22514212 0.14650722 -0.03395495
000070 d6 37 89 be 1e 3a 1b be 48 96 33 be 74 ad 08 be
       -0.26800412 -0.15158889 -0.17537796 -0.13347417
000080 31 3e eb bc 65 9a 62 b8 3f d4 b5 bc 7e 46 0c 3e
       -0.028716179 -5.402639e-05 -0.022195933 0.13698766
000090 8b b0 cf bd 74 4d af 3e 22 eb 89 bd 22 46 e6 3d
       -0.10141095 0.3423878 -0.06734301 0.112438455
0000a0 85 3c 5d be 94 84 98 be 9d ff a1 3c 71 04 49 bd
       -0.21605118 -0.2978865 0.019775206 -0.0490765
0000b0 63 9b 96 bd 04 e3 72 be 78 c8 e8 bd 75 7d 81 be
       -0.073538564 -0.23719412 -0.113663614 -0.2529103
0000c0 d1 a5 66 3e 2b 40 84 3d 1d d1 66 bd 15 45 1f 3e
       0.22524191 0.064575516 -0.05635177 0.15553696
0000d0 96 5a 60 3b a9 16 e6 bd e8 f7 f8 3d b1 f5 a5 bd
       0.003423368 -0.11234791 0.12156659 -0.081035025
0000e0 e7 87 22 3d ad d2 35 be ff c0 86 be 60 7c 85 3e
       0.039680388 -0.17756148 -0.2631912 0.26071453
0000f0 c7 5d c1 bd 7d 9d 88 bd e0 a4 0e bd 34 09 81 be
       -0.09441715 -0.066706635 -0.034825206 -0.25202334
000100 03 b1 a5 3d 8d d6 29 be 42 42 57 bd 0f 05 50 3e
       0.08090403 -0.16585751 -0.052553423 0.2031443
000110 19 43 9d be ec bf 63 be 33 f4 b3 bd e5 e7 b8 be
       -0.30715254 -0.22241181 -0.08786812 -0.3611442
000120 3d 2f 44 be b4 04 d5 bd e6 3a dd 3d e6 2f a2 3e
       -0.19158645 -0.10401288 0.108022496 0.3167717
000130 7e 2b 87 3c 28 e7 aa 3d 86 4c 72 bd 51 51 9c 3c
       0.01650023 0.08344871 -0.05915501 0.019081743
000140 90 63 44 be 77 bf 82 3d 2c 93 84 be f9 5f 24 be
       -0.19178605 0.06384175 -0.25893533 -0.16052236
000150 fd 36 0b 3e d0 72 e4 bd 0e 3d 43 be 43 4f 5b bd
       0.13595195 -0.11154711 -0.1906626 -0.053542387
000160 d2 03 db bd d7 b0 75 ba 25 36 81 bd 06 9d d9 3d
       -0.10694088 -0.00093723595 -0.063091554 0.10625653
000170 9c 00 18 be 88 f7 4c 3e 86 c5 12 be 66 ce 6c be
       -0.14843982 0.200163 -0.14333162 -0.2312561
000180 e0 06 73 3e c6 73 d3 bd 85 0e 6c 3e ed 01 db 3d
       0.23733091 -0.103248164 0.23052414 0.10693727
000190 fb 96 0a 3e fe 7c bd 3d 1b 9e 99 3d 6c 4b c9 3c
       0.13534157 0.09252356 0.07500859 0.024572097
0001a0 48 b0 5a bd 47 2a 33 3b 18 a3 3a 3d 89 b7 fe bd
       -0.05339077 0.0027338432 0.045565695 -0.1243735
0001b0 97 3f c1 bd fd 4a 86 bd cf 2d 0d be 3e 88 23 be
       -0.09435957 -0.06557272 -0.13787006 -0.15969941
0001c0 97 dd ac bd cf 39 35 be 18 06 6f bd 4f 19 1a 3d
       -0.084407024 -0.17697833 -0.05835542 0.037621792
0001d0 41 d9 ae 3d 5c 90 8c be 27 60 8f be 53 e8 a6 3d
       0.08537532 -0.27453887 -0.28003046 0.08149781
0001e0 b8 88 fe bd bd 5d 3e bd f5 52 50 3e 13 51 86 3e
       -0.12428421 -0.046476115 0.20344146 0.2623373
0001f0 0b 09 e3 3d 20 d6 76 3b d0 5f 46 bd 66 c6 17 bd
       0.11085709 0.003766425 -0.048431218 -0.037054442
000200 f2 d0 54 3e 25 80 9a be bd ef 2a be 4d e6 8f 3e
       0.20782831 -0.30175892 -0.16693015 0.28105393
000210 50 31 c9 be 21 07 96 3d cc fd d4 3d 67 ec 30 3e
       -0.39295435 0.073255785 0.103999704 0.1727768
000220 90 9a 7f 3d b9 87 99 3d 06 10 a7 3d fe 23 1c 3e
       0.06240326 0.0749659 0.08157353 0.15248105
000230 a3 0f 9d 3d 34 e9 13 be 6d bd 89 3d bc 9c 7b bd
       0.07668998 -0.14444429 0.06725583 -0.06142877
000240 91 f2 4b 3e 4f 9f 57 be 5c a1 19 bd c6 8a 0b be
       0.1991675 -0.21056865 -0.0375074 -0.13627157
000250 f4 f8 e2 bd 7e c2 2d 3e 83 66 3e bd b2 e7 32 3e
       -0.1108264 0.16968724 -0.04648448 0.17471197
000260 14 db cf 3d e9 ef fa bd 29 d8 e5 3d 5f 76 2d 3e
       0.10149208 -0.122527905 0.1122287 0.16939686
000270 a9 ef 2b 3e 5c a2 d2 3d c5 b2 96 bd a1 d6 23 3e
       0.16790642 0.10284874 -0.07358316 0.15999843
000280 0e 62 66 be 94 10 c0 3c 0b 56 0b be 53 56 66 3c
       -0.22498342 0.023445405 -0.13607042 0.014058667
000290 e2 b4 a8 3d 51 30 db 3d 58 04 a9 3c 50 d4 f4 3d
       0.08237626 0.10702575 0.020631954 0.11954558
0002a0 e7 c1 cd bc 55 50 42 3e db 46 a6 3d b4 4f 7f be
       -0.025116874 0.18975957 0.08118983 -0.24932748
0002b0 3d d6 61 be 9f 54 85 be 89 1f 48 be 22 5e 3c be
       -0.22054382 -0.26041123 -0.1954328 -0.18395284
0002c0 ce 1c 63 be 54 d4 d3 3d 5b b3 18 be b3 8c 10 3e
       -0.22178957 0.10343233 -0.14912169 0.14116172
0002d0 ea f1 29 be a0 b9 bb 3d 92 3a 2d 3e 49 da c1 3d
       -0.16596189 0.091662645 0.16916874 0.09465463
0002e0 23 c0 9c 3e b8 d0 6f be 77 fe 3c be 59 62 99 bd
       0.3061534 -0.23419464 -0.18456446 -0.074894615
0002f0 09 ae 3b 3d 37 1c 35 3e de d4 2c 3e 12 9e ee bb
       0.04582027 0.17686544 0.16878077 -0.007282027
000300 2e fb fc bd 66 22 28 bd b3 be 44 3e 39 45 51 be
       -0.12352596 -0.04104843 0.19213371 -0.20436563
000310 f1 fb fc bd de 04 f6 3d f5 c8 7b 3e 32 58 59 bd
       -0.123527415 0.12012647 0.24588378 -0.053062625
000320 95 ce a7 bd 0a aa ef bd b3 de 77 3c 93 e7 9f bd
       -0.08193699 -0.11702354 0.015128779 -0.07807841
000330 e5 ef 38 3e fe 3e ae 3e bb 80 a2 bd 1d 9a b2 3d
       0.18060263 0.34032434 -0.0793471 0.08720801
000340 00 8f 48 be 01 ec 7a be 30 bd ad 3d ec 78 14 be
       -0.195858 -0.24504091 0.0848335 -0.14499253
000350 db bd 83 3e 46 af 48 3d 97 bb e4 bd 3a d8 65 be
       0.25730786 0.04899528 -0.111685924 -0.22445765
000360 4c a2 00 3e 76 4c 31 3e 68 b4 44 3d 12 8a 22 be
       0.12561911 0.17314324 0.04802361 -0.15872982
000370 c6 f4 dc bd 8c bd 70 3d 8a 0e bf 3e 44 84 42 bd
       -0.10788874 0.058774516 0.3731578 -0.04748942
000380 8f 72 27 3c a0 43 c1 be 17 9c 9c 3d 81 d1 dd bd
       0.010220184 -0.37746906 0.07646959 -0.10830975
000390 9a e8 a2 3d 64 b9 d7 bd 5c 7b 9b 3e 95 6b ba 3d
       0.079545215 -0.10533407 0.30367553 0.09102551
0003a0 9a 24 0a be 8e eb 1b be ce ee 2c 3d 6c 7e 84 3d
       -0.13490525 -0.15226576 0.04221993 0.064694256
0003b0 96 9c 26 be d7 d6 3e 3e cf 89 44 bd c7 fb 4e 3e
       -0.1627067 0.18636642 -0.047982987 0.20213233
0003c0 82 a6 55 be fb 78 08 be 3b 95 25 3e 9e e8 5c bd
       -0.20864299 -0.133274 0.16170208 -0.05393278
0003d0 5c 72 ab bd 2b d4 0e 3e ed 21 c5 bd 5a 85 51 be
       -0.08371422 0.13948123 -0.096256115 -0.20461026
0003e0 4a f5 8b bd 57 5f fe bd 55 0f 1a be 72 b9 f6 bd
       -0.068338946 -0.124205284 -0.15044911 -0.1204709
0003f0 56 a8 6f 3e 72 fa a7 3e 9a b6 15 be 31 79 64 3d
       0.23404059 0.32808262 -0.14620438 0.05577964

fc2.weight f4 [128, 258]
000000 0c b9 e0 bb 7d 43 12 bd 43 da ad 3d e4 00 b6 bd
       -0.006857997 -0.035708893 0.08488896 -0.088868886
000010 9e b1 73 3d 57 57 1c bd 7b 4a 68 3d c0 fa 4b 3d
       0.05949556 -0.03816923 0.056711655 0.04979968
000020 af 60 81 bd 1f 0a ba 3b 82 82 00 be 27 a6 4b be
       -0.06317269 0.005677476 -0.12549785 -0.19887601
000030 8b 68 c9 bc 8c a4 c0 3b 71 eb a2 bc 54 6b 80 3d
       -0.024585983 0.0058789905 -0.019887658 0.06270471
000040 fb f6 7e bc 9d a9 42 3c 28 e8 35 3c 6b 5f 88 bc
       -0.015561814 0.011881259 0.011102714 -0.016647061
000050 14 70 98 3c a6 fe 3b bd 75 85 6f 3d 39 7a cf 3c
       0.01860813 -0.04589715 0.058476884 0.025326835
000060 19 a0 94 bd e1 2a 23 bd 8f db 54 bd af 34 2d 3d
       -0.07257099 -0.039835814 -0.0519672 0.04228657
000070 28 0f 17 bc 2c f3 38 3c 2e a4 aa 3d 92 9a 44 be
       -0.009219922 0.011288445 0.08332096 -0.19199589
000080 66 bd aa 3d 9c cb 38 3c 7b e0 a3 bd 28 69 43 3d
       0.08336906 0.011279013 -0.080018006 0.047707707
000090 d4 86 9b bd 6d 80 3c 3d 83 ff 27 bd f3 fe 07 be
       -0.07594076 0.046020914 -0.04101516 -0.13280849
0000a0 1b 72 e9 bc 4b 9e de 3c 35 1b 92 bd 13 5e 82 bd
       -0.028496793 0.02717509 -0.071340956 -0.063655995
0000b0 6f 6c b7 bd 32 f1 9a bd 4d a8 c4 bc 16 8d 77 bc
       -0.08956229 -0.075655356 -0.024006033 -0.015109321
0000c0 89 42 46 3c 9f be ac 3c 6b e7 23 3c ba af 86 3b
       0.012100824 0.021086989 0.010003905 0.0041103037
0000d0 03 a4 b2 3d a0 1d c1 3c 5d ef af bd 03 8e 8d 3c
       0.08722689 0.023573697 -0.08590577 0.01727963
0000e0 b7 c8 1d be da 06 d5 3c 1a 59 f1 bd a4 c9 02 3e
       -0.15408598 0.026004244 -0.11784573 0.12772232
0000f0 c5 28 84 bc 72 57 bb 3c 61 08 73 bd 8d 02 48 ba
       -0.016132722 0.022868846 -0.059334163 -0.00076297746
000100 29 59 5f bd 29 b0 a2 bd 97 6e 6d bd 45 c3 97 3b
       -0.05452839 -0.07943756 -0.057966795 0.0046314322
000110 90 00 32 3d df 09 d8 bd e5 42 25 bd 50 6c dc 3b
       0.043457568 -0.10548758 -0.040347 0.006726779
000120 ff e4 b0 bc 8d 2e 6c 3c 69 99 5d bc 81 25 b6 bc
       -0.021593569 0.014415395 -0.013525345 -0.02223468
000130 50 2b b7 bc c1 8f 92 3c 5a da 92 3d c2 b9 6e bd
       -0.02235952 0.017890813 0.071705535 -0.05828262
000140 d8 ad 42 3e 47 dd 09 c0 01 e1 e5 3d 57 bd f1 ba
       0.19011629 -2.1541307 0.11224557 -0.0018443268
000150 cc f9 65 be 30 1f 81 bb 8e e4 9d 3d 13 36 0b 3d
       -0.22458571 -0.0039404854 0.07709609 0.033987116
000160 3a 52 ce bd 2a d8 8c 38 c5 54 7a 3d 6a 18 0c be
       -0.10074277 6.715984e-05 0.061116 -0.13681188
000170 99 80 84 bd a8 af 02 bd 64 b7 8d 3d 3a 0e 0d 3d
       -0.064698406 -0.0319058 0.069197446 0.034437396
000180 10 6a 83 3d 0a 41 97 3b d0 40 a6 bc 65 d4 46 bc
       0.06416714 0.0046159076 -0.020294577 -0.0121356
000190 25 cc a5 3c 9d 1e 66 bc 26 0c 3d bd c3 10 3e 3d
       0.020238945 -0.014045385 -0.046154164 0.046402704
0001a0 a0 90 9e bd b4 db ae bc 77 9c 5d bd 76 74 b9 bd
       -0.07742429 -0.021344997 -0.054104295 -0.09055416
0001b0 fe 32 2e 3c ea 89 25 bc 54 ee 7e 3d 8b d6 e5 3c
       0.010632275 -0.010103682 0.062239006 0.028056404
0001c0 5c 52 9b bd ca f2 67 bd 98 95 82 bc 25 36 20 bb
       -0.07584068 -0.056628026 -0.015940472 -0.0024446335
0001d0 a2 9c 69 bd 12 04 fd 3c 1e a1 ca 3c c6 87 ef 3d
       -0.057034142 0.03088573 0.02473503 0.116958186
0001e0 ae 90 50 3c 00 fe 25 3d 14 d5 3c 3b 52 36 fd 3b
       0.012729807 0.040525436 0.0028813528 0.0077274228
0001f0 76 4d a3 bc dd 8a 52 3d f4 33 3d bd 66 53 32 bc
       -0.019934397 0.05140196 -0.046192124 -0.010884142
000200 9f 76 56 bd d8 02 29 bd 26 30 25 bb 99 c3 81 bd
       -0.05235922 -0.041262478 -0.00252057 -0.063361354
000210 23 3c 17 be 22 f6 09 3d 5b 31 a1 3c 3f 5b 85 3c
       -0.14769034 0.033681996 0.019676855 0.016278861
000220 ed 37 c2 3d 00 01 10 bd 1c 3f 9a 3d 48 82 a7 3d
       0.09483323 -0.035157204 0.075315684 0.08179146
000230 a4 71 18 3b 91 ee 31 bc 18 c6 76 3d 20 1c 1a 3d
       0.0023261094 -0.010860101 0.06024751 0.03762448
000240 80 86 96 bc 45 ec 1e bd 49 f3 45 3d 66 bc a4 3c
       -0.018374681 -0.038799543 0.048327718 0.020109367
000250 51 c5 0e 3d 69 dc 5b 3b f2 78 47 bc 0f b7 a8 bc
       0.034856144 0.0033548123 -0.012174832 -0.020595102
000260 89 b7 ee 3c 2e f9 00 3e b3 9f 14 bd 2c a4 f4 be
       0.02914025 0.12595055 -0.036285114 -0.47781503
000270 dd 56 15 3d f6 5e 0b 3d 5d 89 39 3d a8 70 2e 3d
       0.036459792 0.03402611 0.045297015 0.042587906
000280 53 75 11 bd db d1 1c 3d 3f cf 37 bc f7 7f b3 b9
       -0.03551228 0.03828607 -0.011218845 -0.00034236882
000290 89 63 fe bd 8a b4 81 3b 81 c4 66 bd 4f 31 b8 3c
       -0.124213286 0.0039582895 -0.056339744 0.02248445
0002a0 74 66 6f 3d 8f 1c b4 3b fe 6c 16 bd 4a c7 20 bd
       0.058447316 0.0054965685 -0.036725037 -0.039252557
0002b0 ba a6 a4 3d 2e e8 2b 3d 53 d9 d3 bc 4a 3e 93 3d
       0.08039613 0.04196947 -0.025860464 0.07189615
0002c0 b0 40 99 3c 3e bc 88 bc 5a 43 87 bd 87 8d 39 bc
       0.018707603 -0.016691323 -0.06604643 -0.011325247
0002d0 75 7d 1a 3d a4 81 fd 3c 4f f9 02 be d2 37 24 3c
       0.0377173 0.030945607 -0.12790416 0.010023074
0002e0 ba 24 0b bd 1c 5e 06 bd 1f 63 13 3d d0 aa 78 be
       -0.033970572 -0.032804593 0.0359832 -0.2428391
0002f0 02 2f 4e bd 92 e0 4a bd 46 fe 08 3c 89 d4 c4 3c
       -0.0503378 -0.049530573 0.008361405 0.024027126
000300 ce fc 89 bd 36 5c 66 bd 59 72 e4 bc 67 23 b3 3d
       -0.06737672 -0.056240283 -0.027886556 0.08746987
000310 60 7b 47 3c 6c de bb 3c 91 b6 14 3d 77 c8 9b bd
       0.012175411 0.022933207 0.03630692 -0.07606595
000320 16 d4 a0 3d f3 16 b8 bd 28 66 a1 3b 2c 37 09 bd
       0.07852952 -0.08988752 0.004925508 -0.03349988
000330 27 22 e3 b9 c5 ca 11 be cb a1 00 bc af b0 f6 bc
       -0.0004332226 -0.14237507 -0.007851074 -0.030113546
000340 6a 32 88 3d 33 18 07 3c 46 5c 97 bc ae 63 30 bd
       0.06650241 0.008245516 -0.018476617 -0.043063812
000350 d2 2c eb bc b1 58 ba bc 25 5a ae 3c a5 f5 6d 3d
       -0.028707895 -0.02274737 0.021283219 0.058095593
000360 61 28 0e 3d 7a dd 35 bd 15 cd 6c 3d 6a ea 7c 3d
       0.034706477 -0.04440067 0.05781277 0.061746992
000370 ee 83 21 bf 45 4f 86 bd eb 39 03 3d 4b 0e 27 bd
       -0.63091934 -0.06558088 0.032037657 -0.040785115
000380 e1 8b 98 bd b4 62 88 bd a3 9c 18 bf 3c 8c c4 bc
       -0.07448555 -0.06659451 -0.5961401 -0.02399265
000390 2a 72 32 be 33 b8 bb bd 9a f6 59 bd 0f 94 0b 3b
       -0.17426363 -0.091659926 -0.053213693 0.0021297967
0003a0 46 a0 9a bd b6 81 5c bd 2c 0c d1 3d d0 83 3d 3d
       -0.07550101 -0.05383464 0.102074 0.046268284
0003b0 6a 3c a4 bd 3c 52 d0 bd 1d b3 75 3d 8a fd ac bb
       -0.080193356 -0.10171935 0.05998527 -0.0052792476
0003c0 60 ad ef 3c 40 b6 af 3c bf 96 6b bd 3c 14 67 bc
       0.029257476 0.021449208 -0.05751681 -0.014103945
0003d0 a9 6e 83 bd 00 45 ed bc 7a a4 ea bc 71 42 00 3d
       -0.06417591 -0.028963566 -0.028642882 0.031313363
0003e0 d4 52 0b bf a5 c5 25 3c 18 72 93 3c 74 0c b6 bd
       -0.5442326 0.010117923 0.01799874 -0.08889094
0003f0 e6 e7 62 bd a9 74 a7 3d e2 e0 23 3d 80 97 83 3d
       -0.055396937 0.08176548 0.040009387 0.06425381

fc2.bias f4 [128]
000000 5d 27 e9 3d 46 12 cd bc bc 80 ac bd b4 0b 54 3b
       0.11384461 -0.025033128 -0.08422992 0.0032355608
000010 d2 82 bb bd b9 84 59 3c 63 b8 60 3d a8 17 58 3d
       -0.09155811 0.013276272 0.054863345 0.052756935
000020 a6 38 a7 3d 79 db 72 3c 69 b6 6c bd fb 3c 51 be
       0.08165102 0.014822834 -0.057791147 -0.20433418
000030 d3 a0 97 3d 54 b9 b3 bd 64 b8 9a bd 59 cf 07 3d
       0.07403722 -0.08775583 -0.07554701 0.033156727
000040 3e 22 b6 bc 94 0a 1c bd 0b ac dc 3d 48 16 b9 3d
       -0.022233125 -0.038096026 0.10775002 0.09037453
000050 16 6d 9f bd 1f b0 16 3c d5 61 4b bd 8b 71 a6 bd
       -0.07784478 0.009197264 -0.049653847 -0.08127125
000060 e5 64 3f bd 48 aa 59 3c 4d 97 08 3c 7b 24 72 3c
       -0.04672708 0.013285227 0.008336854 0.014779205
000070 e9 e5 a9 39 ed 04 18 bb 8f 89 a5 3d 0a 90 89 bd
       0.00032405488 -0.0023196295 0.08082878 -0.067169264
000080 a0 18 a8 bb 93 96 bf bd 1d f1 84 bd 6c 62 6c 3d
       -0.0051298887 -0.09354892 -0.06491301 0.05771105
000090 11 c0 4c 3d 5b 42 ee bd 7d 5a 70 3d a5 bd 9c 3b
       0.049987856 -0.1163375 0.058680046 0.0047833496
0000a0 54 9e 2e bd b4 ac d7 bd b8 2d f5 bb 1b 6e 16 3b
       -0.042631462 -0.105309874 -0.0074822567 0.0022953812
0000b0 33 18 b8 3d 86 70 50 3c b7 e1 9f bd e4 01 e2 bc
       0.08988991 0.01272214 -0.078067236 -0.027588792
0000c0 0e 69 41 3d 21 6e 04 3b 50 e2 13 bd 4f e4 ec 3c
       0.04721933 0.0020207244 -0.0361045 0.02891746
0000d0 4f 3a 3e be fa 80 6f bd 0b 36 19 3d 0d 90 83 bd
       -0.1857693 -0.05847261 0.037405055 -0.0642396
0000e0 fb 92 6a bd 38 77 f3 bc 75 56 46 3d 17 c0 f6 bd
       -0.057269078 -0.029719934 0.048422296 -0.12048357
0000f0 b8 6a a2 bb ce a0 97 3c 06 84 4f 3b d6 6e 90 3b
       -0.0049565695 0.018509295 0.0031664385 0.004407744
000100 71 21 bb bc 0a 9e bd bb 8d 90 fa 3b 0b f4 1d bd
       -0.022843095 -0.005786662 0.0076466263 -0.038562816
000110 f4 cb 42 3b d2 31 84 be 1f e6 1c be c3 e9 23 3d
       0.0029723616 -0.2581926 -0.15322159 0.040017854
000120 9c 4b 5d 3d 45 dd ef bb 2f 8a 8e bd aa e7 17 3d
       0.054027185 -0.0073200786 -0.0695995 0.037086166
000130 fb 94 ce bd 5c 06 32 bc 35 e6 ef 3d 9d 65 84 3d
       -0.100870095 -0.010865774 0.117138304 0.06464694
000140 60 3d c7 3c 23 df a4 bc 99 e2 bf 3d 7d a1 d1 bd
       0.024321258 -0.020125931 0.09369392 -0.102358796
000150 1d 4e 07 3d f5 76 27 3b d8 49 e6 bd 04 cd 61 3c
       0.03303348 0.0025553082 -0.11244553 0.01378179
000160 41 e0 02 3e 7d db ad bc 44 1e 55 bd 38 57 ac bb
       0.12780859 -0.021222824 -0.052030817 -0.0052594207
000170 e7 dd 51 bd 7e 1b cc 3d 51 65 82 3b e1 51 48 3c
       -0.051237013 0.09966181 0.003979363 0.012226553
000180 59 9c dc bc a6 12 26 bd 60 56 a1 3c 7c 85 8a bd
       -0.026930021 -0.04054513 0.019694507 -0.067637414
000190 d6 48 15 3d b0 50 5d 3d b4 2a 16 3d 61 26 52 bd
       0.036446415 0.054032028 0.03666182 -0.051306132
0001a0 37 49 1b 3d d6 49 05 be c7 88 c0 bd 26 ee 35 bd
       0.03791162 -0.13016447 -0.09401088 -0.04441657
0001b0 f9 e1 c0 3d 76 b5 24 bd 3c 62 1c bc a6 48 e8 3b
       0.09418101 -0.040212117 -0.009544905 0.0070887385
0001c0 1c d9 11 3d bd bf cc 3d d9 2b 8c 3c 89 c1 9b 3d
       0.035607442 0.09997509 0.017110752 0.07605273
0001d0 6f f1 9c bd d8 24 79 be fb 18 88 3c d7 78 a3 3d
       -0.07663237 -0.24330461 0.016613474 0.07982033
0001e0 0a 93 3f 3d 60 3d ce 3c 29 d6 05 bd 39 ad 29 bd
       0.046771087 0.02517575 -0.032674942 -0.041424964
0001f0 70 ef d0 bd 86 30 42 3d 8f ca 44 bd b5 b2 2b 3d
       -0.10201919 0.047409557 -0.048044737 0.041918475

fc3.weight f4 [1, 128]
000000 46 1e 52 3d 6d 26 77 3d 6b 58 42 be 45 b3 10 be
       0.051298402 0.06033938 -0.18979041 -0.14130886
000010 7a 7e 7f 3d df ba 0c 3e c9 a8 15 3d 8f 26 92 3d
       0.062376477 0.1374316 0.03653792 0.07136261
000020 92 7c 20 3c 82 a2 3d 3c f6 6f 0d be ec f8 9c bc
       0.009795325 0.011574389 -0.13812241 -0.019161664
000030 23 e8 31 3d ee e4 47 bd ab f8 10 bd 61 c3 b2 bd
       0.043434273 -0.04880231 -0.0353934 -0.08728672
000040 21 a5 0a 3c bc 41 3c be e6 21 3f 3d 75 61 d5 3b
       0.008462221 -0.1838445 0.046663187 0.006511862
000050 d5 6c 62 be 38 5f a1 bd 41 4e 82 3d 6b 90 8e 3d
       -0.22111829 -0.0787949 0.06362582 0.06961139
000060 3a 43 73 3d d0 94 17 3c 7a 8f 59 3d 2b 32 7f bd
       0.059390284 0.009251788 0.053115346 -0.062303703
000070 ec 0a c6 3c bf 4b 9b 3d 69 36 4a 3c 6d 0a bd bd
       0.02417513 0.07582807 0.012342074 -0.09230504
000080 13 2e 66 bd 9e c5 30 3e d0 57 fa 3d b5 a8 b8 bc
       -0.056196284 0.17262885 0.1222378 -0.022541383
000090 fd 91 fd bc 79 17 b4 bd 5e cd bb 3d f7 10 ba 3d
       -0.030953402 -0.087935396 0.0917003 0.09085267
0000a0 d0 17 af 3d 68 01 e0 bd af b3 0b 3e d1 16 b6 be
       0.08549464 -0.10937768 0.13642763 -0.35564283
0000b0 3d 48 45 3c 51 8c 8f 3c de 03 93 3d a2 48 fe bd
       0.012041149 0.017522963 0.07178472 -0.12416197
0000c0 6d 66 b2 3c a4 ac 8d bd 06 b4 bb bc e3 55 53 bd
       0.021777356 -0.06917694 -0.02291299 -0.05159558
0000d0 e3 fd b1 bd 45 15 97 3e 11 4e 27 bd 44 31 72 3d
       -0.08691003 0.29508415 -0.040845934 0.059129015
0000e0 43 dc 32 be 11 1a e3 bc 38 e4 f2 bd 6a d7 e2 bc
       -0.17466836 -0.02772239 -0.118599355 -0.027690608
0000f0 77 ce 88 bd ad 16 7d 3d b3 47 87 3c 22 d5 90 bd
       -0.06680005 0.061789203 0.016513681 -0.07071902
000100 6a fe da be ef 1c 8d 3d 3b 7b c3 bb c8 e3 e9 bc
       -0.42772228 0.06890284 -0.005965618 -0.028550997
000110 39 73 75 be a8 4a ff bc c6 a7 a9 bd f2 1c 7d be
       -0.23969735 -0.031163529 -0.08283953 -0.24718073
000120 cc e7 03 3c d8 67 9d 3d d1 c2 89 3d a6 36 38 3c
       0.00805087 0.07685822 0.067266114 0.011243498
000130 0f 5e 41 bd 6a 05 4b bd 23 8a a5 3c 3d af c1 3c
       -0.047208842 -0.04956571 0.02020747 0.02364313
000140 cb 28 12 3d 7c 3a 93 bd 35 6c 1b 3d 83 04 40 bc
       0.035683434 -0.071888894 0.03794499 -0.011719826
000150 98 86 2b 3d c6 78 ac bd 0e f7 92 3d cf 01 86 bd
       0.041876405 -0.08421473 0.07176028 -0.06543314
000160 95 85 b6 3c 45 2a fe bd 49 9f 2d bc 31 a8 3d be
       0.022280494 -0.12410406 -0.010597059 -0.18521191
000170 e7 2f 0e be 73 c3 5e 3c 24 16 be 3d bb 39 1c 3d
       -0.13885461 0.013596403 0.09281567 0.038140994
000180 1d dd 19 3d 90 78 df bd 52 a9 38 bc 01 60 0a bd
       0.037564386 -0.10911667 -0.011270838 -0.033782963
000190 0f e6 60 bd 1f c2 ee bd bb 42 49 bd 1f 3d 3d bc
       -0.0549069 -0.116581194 -0.049135905 -0.011550217
0001a0 3f 0a 17 be 9d d8 83 bd 3d 4a f6 bc c2 ca 90 bc
       -0.14750002 -0.064378 -0.030064696 -0.017674807
0001b0 11 cf 5e bd 69 2d 0b 3e 30 dd ab bc a3 84 9c 3c
       -0.054396693 0.13591541 -0.020979494 0.019106215
0001c0 65 a2 6c be 33 cf 5d 3c 64 9f 85 3c 7b e7 33 3c
       -0.23108824 0.01353817 0.016311355 0.010980482
0001d0 14 98 cf bb 4e 6d 10 bd 8c a1 95 bd 4a ab be 3c
       -0.006335268 -0.03526049 -0.07306203 0.023275036
0001e0 f5 bd cf 3c 05 d3 50 3c 35 b0 98 3c 33 d7 ad bc
       0.025359133 0.0127456235 0.01863871 -0.021220779
0001f0 62 c9 e9 bd f0 60 a3 bd 05 47 ed bd 18 4f bd bd
       -0.11415364 -0.07977474 -0.115858115 -0.092436016
